…
Data Loading:  162.53942227363586 

df_train shape: (1120, 60484)
df_test shape: (280, 60484)
done
Data Loading:  166.0635004043579 

df_train shape: (1120, 60484)
df_test shape: (280, 60484)
X_train shape: (1120, 60483)
X_test shape: (280, 60483)
Y_train shape: (1120, 2)
Y_test shape: (280, 2)
X_train shape: (1120, 60483, 1)
X_test shape: (280, 60483, 1)
0 128 20 1
1 128 10 1
_________________________________________________________________
Layer (type)                 Output Shape              Param #   
=================================================================
conv1d_1 (Conv1D)            (None, 60464, 128)        2688      
_________________________________________________________________
activation_1 (Activation)    (None, 60464, 128)        0         
_________________________________________________________________
max_pooling1d_1 (MaxPooling1 (None, 60464, 128)        0         
_________________________________________________________________
conv1d_2 (Conv1D)            (None, 60455, 128)        163968    
_________________________________________________________________
activation_2 (Activation)    (None, 60455, 128)        0         
_________________________________________________________________
max_pooling1d_2 (MaxPooling1 (None, 6045, 128)         0         
_________________________________________________________________
flatten_1 (Flatten)          (None, 773760)            0         
_________________________________________________________________
dense_1 (Dense)              (None, 200)               154752200 
_________________________________________________________________
activation_3 (Activation)    (None, 200)               0         
_________________________________________________________________
dropout_1 (Dropout)          (None, 200)               0         
_________________________________________________________________
dense_2 (Dense)              (None, 20)                4020      
_________________________________________________________________
activation_4 (Activation)    (None, 20)                0         
_________________________________________________________________
dropout_2 (Dropout)          (None, 20)                0         
_________________________________________________________________
dense_3 (Dense)              (None, 2)                 42        
_________________________________________________________________
activation_5 (Activation)    (None, 2)                 0         
=================================================================
Total params: 154,922,918
Trainable params: 154,922,918
Non-trainable params: 0
_________________________________________________________________
X_train shape: (1120, 60483)
X_test shape: (280, 60483)
Y_train shape: (1120, 2)
Y_test shape: (280, 2)
X_train shape: (1120, 60483, 1)
X_test shape: (280, 60483, 1)
0 128 20 1
1 128 10 1
Train on 1120 samples, validate on 280 samples
_________________________________________________________________
Layer (type)                 Output Shape              Param #   
=================================================================
conv1d_1 (Conv1D)            (None, 60464, 128)        2688      
_________________________________________________________________
activation_1 (Activation)    (None, 60464, 128)        0         
_________________________________________________________________
max_pooling1d_1 (MaxPooling1 (None, 60464, 128)        0         
_________________________________________________________________
conv1d_2 (Conv1D)            (None, 60455, 128)        163968    
_________________________________________________________________
activation_2 (Activation)    (None, 60455, 128)        0         
_________________________________________________________________
max_pooling1d_2 (MaxPooling1 (None, 6045, 128)         0         
_________________________________________________________________
flatten_1 (Flatten)          (None, 773760)            0         
_________________________________________________________________
dense_1 (Dense)              (None, 200)               154752200 
_________________________________________________________________
activation_3 (Activation)    (None, 200)               0         
_________________________________________________________________
dropout_1 (Dropout)          (None, 200)               0         
_________________________________________________________________
dense_2 (Dense)              (None, 20)                4020      
_________________________________________________________________
activation_4 (Activation)    (None, 20)                0         
_________________________________________________________________
dropout_2 (Dropout)          (None, 20)                0         
_________________________________________________________________
dense_3 (Dense)              (None, 2)                 42        
_________________________________________________________________
activation_5 (Activation)    (None, 2)                 0         
=================================================================
Total params: 154,922,918
Trainable params: 154,922,918
Non-trainable params: 0
_________________________________________________________________
Train on 1120 samples, validate on 280 samples
Epoch 1/1
Epoch 1/1
  20/1120 [..............................] - ETA: 16:38 - loss: 0.6931 - acc: 0.4500  20/1120 [..............
…
